SpatialNets/model/SpatialNets_model_path.pth (torch_old, 89038 bytes, 8 tensors)

weight f4 [9, 200]
000000 c4 4b 48 bb c2 94 9a bf 1e d4 95 3e ba f3 ac 3f
       -0.0030562738 -1.2076647 0.29263395 1.351188
000010 fd 87 41 3d 89 18 5e 3f b4 20 80 bf f3 59 39 3f
       0.04724883 0.8675619 -1.000998 0.72402877
000020 20 b8 33 bf 0c 88 c6 bd ff e6 be 3f f1 63 9d 3f
       -0.7020283 -0.09693918 1.4914244 1.2296125
000030 e6 95 ac 3b 50 b8 9e bf 56 58 32 3e 9a ae 8b bf
       0.0052668927 -1.2399998 0.1741651 -1.0912659
000040 51 a2 bc bf 5a b8 50 bf 9e 69 de bf 30 fb 82 3e
       -1.4737035 -0.815313 -1.7375982 0.25582266
000050 cf fd 2c 3c 36 ae d2 bd 95 7b 43 bf 45 93 90 3f
       0.01055856 -0.10287134 -0.76360446 1.1294943
000060 7c 93 50 bf d6 2e 46 3e 4b 74 c8 3c 1c a4 56 3f
       -0.81475043 0.19353804 0.024469515 0.8384416
000070 57 97 e1 3f 3e 1f 91 be 14 fa 83 3f 3d 4e 63 bf
       1.762431 -0.28344148 1.0310693 -0.8879126
000080 a1 8d 8c bf 6d fc 91 bf cd 2a db 3f 66 37 82 bf
       -1.0980722 -1.1405159 1.7122437 -1.0173156
000090 45 4f 42 be e8 5d cc 3c 1e 32 e0 3f b4 fa 2a 3d
       -0.18975551 0.024947122 1.7515295 0.041742995
0000a0 61 d8 47 3f 1f 79 81 3d 36 8b 6d 3f 97 ae 89 3f
       0.78064543 0.0632193 0.92790544 1.0756406
0000b0 c8 b0 c1 3f 0d 45 d5 3f 71 d4 8f bf 01 a7 e3 bd
       1.5132074 1.6661698 -1.1236707 -0.11115838
0000c0 9d d9 1c ba 30 e0 30 3f ef af 5d 3f f2 94 9c bc
       -0.00059833546 0.6909208 0.8659658 -0.019113991
0000d0 03 13 92 3f d2 ce 38 be 87 1f 58 be c6 b2 7b bf
       1.1412052 -0.18047646 -0.21105777 -0.9831966
0000e0 12 41 a9 bf 2d fe cd 3f 78 b5 c6 3f f6 a0 31 3e
       -1.3222983 1.6093193 1.552413 0.17346558
0000f0 00 36 07 3b 1e 53 8d be 58 b3 32 bf da 72 8d bf
       0.0020631552 -0.27602476 -0.69804907 -1.1050675
000100 83 b6 99 3e 4a 5a 88 bf 6a 2f 8f bf 70 3d 2a 3f
       0.30022058 -1.0652554 -1.1186345 0.66499996
000110 99 03 59 3f dc c5 a4 3f 2f 0c c5 3d 24 36 46 3f
       0.84771115 1.2872882 0.096214645 0.7742636
000120 89 a1 ad be 8e 61 28 3f 83 d2 7c bf eb 8f 4f bf
       -0.33912304 0.65773857 -0.98758715 -0.81078976
000130 64 40 06 be ae 03 09 bd 2f a5 8e 3f 7e aa 8a bf
       -0.131105 -0.033450775 1.114416 -1.083328
000140 c9 c3 56 3c ed a6 07 bf 3e d8 95 3f d3 8d 8b 3f
       0.013108202 -0.52989084 1.1706617 1.0902656
000150 d4 2f 59 3f ed a1 b0 3f 51 ae 5a be 77 79 8b 3d
       0.84838605 1.3799416 -0.21355559 0.06810277
000160 7c ac e0 3f cc 50 14 bf 68 dc ce 3f 13 20 49 be
       1.7552638 -0.57935786 1.6161013 -0.19641142
000170 17 aa f8 3f 84 a1 35 3f 82 d2 a1 3f 0c 57 39 3f
       1.9426907 0.7094958 1.2642367 0.7239845
000180 04 bd 23 3f 71 54 3e bd 1f 22 d8 3f 5a 03 d4 bf
       0.6396029 -0.04646725 1.6885413 -1.6563523
000190 92 8e 63 3d 56 48 ac bd c8 ec bb bf 2c 7c 31 3f
       0.055555888 -0.084122345 -1.4681635 0.69330096
0001a0 63 03 a0 3d 64 aa 9b 3e d5 24 4b 3e cc 76 40 bf
       0.07813146 0.30403435 0.19838269 -0.7518127
0001b0 20 7b 02 3f 08 6b 21 bf 3c b2 16 be 22 d3 2a 3f
       0.50969124 -0.6305394 -0.14716429 0.66728413
0001c0 06 0b 92 3e b3 6a 35 3e 60 15 cc bc 3e dc 8e bf
       0.28524035 0.17716484 -0.024912536 -1.1160963
0001d0 28 10 78 3f 51 08 80 be 6d 06 50 3f 06 5b 79 3f
       0.9689965 -0.25006345 0.81259805 0.97404516
0001e0 96 ea 7b bf 41 3d 6f 3f 8f 18 cb 3e 7f 66 5a bf
       -0.98404825 0.9345284 0.39667174 -0.85312647
0001f0 ea ff 93 3d 2a cc a1 3e b6 40 72 bf a4 5f e9 bb
       0.07226546 0.31601077 -0.9462999 -0.007121997
000200 c0 1f 88 bf 6b 9c 81 bf 15 60 5e 3e 38 2f 41 bf
       -1.0634689 -1.012586 0.2171634 -0.75462675
000210 70 6c 74 3e 89 b0 0c bd 17 fb 9f bf a2 12 01 bd
       0.2386949 -0.034348045 -1.2498502 -0.03151191
000220 86 c9 98 bc a3 5c 2e bf 63 9f 70 bf a6 92 8a 3f
       -0.018650781 -0.681101 -0.93993205 1.0826004
000230 3f 83 8b 3f 8f 67 1e be 73 8e 2c 3e 48 4c 1c bf
       1.0899428 -0.15469192 0.16851215 -0.61053896
000240 00 7c f7 bf 3a 2f c0 3e c9 a9 04 c0 f1 8a 60 3f
       -1.9334717 0.3753603 -2.0728629 0.8771201
000250 ea d3 26 be 90 c7 8a bf c9 74 87 bf 7d 72 3e 3e
       -0.16291776 -1.0842152 -1.0582515 0.18598361
000260 d5 15 aa bf 07 64 10 be 54 2e 1d bf 9c a9 ca 3e
       -1.3287913 -0.14100657 -0.61398816 0.39582527
000270 f9 43 59 3d ed 2b 55 3f fc ff 07 3f c6 71 6c 3c
       0.05304334 0.8327015 0.53124976 0.014431423
000280 16 00 87 bf 4d 33 ff 3f cf 8d 81 3f 96 10 d0 3f
       -1.0546901 1.9937531 1.0121402 1.6255062
000290 1a 1a 61 be a8 96 fc 3f a1 ed cb 3f eb 8f 4e 3f
       -0.21982613 1.9733477 1.5931894 0.8068835
0002a0 ac df a0 bf dc f1 bb 3d a8 ff ae 3e 26 2e cb 3f
       -1.2568259 0.091769904 0.34179425 1.5873458
0002b0 eb b4 50 3f 76 2d 23 3d be 8d 88 3e bc 70 a7 3f
       0.8152606 0.039838277 0.2667064 1.3081279
0002c0 0f 53 a3 3f 79 e1 b4 bf ac ee 83 3f 44 7e 98 bf
       1.2759722 -1.4131309 1.0307212 -1.1913533
0002d0 db 6d c5 3d cf db 12 3f d1 1e de 3d 19 5a 95 bf
       0.09640094 0.5736665 0.108457215 -1.1668121
0002e0 e2 64 01 3f 12 35 a9 3c a4 34 60 be 56 9f 71 bf
       0.5054456 0.020655189 -0.21895081 -0.9438375
0002f0 06 f8 85 3f e6 c4 46 bf 14 f6 7f 3f 06 ec 11 3f
       1.0466316 -0.77644193 0.9998486 0.5700077
000300 a6 e3 d5 3f 24 40 bb be d7 a2 dd 3d dd b4 e2 bd
       1.6710098 -0.36572373 0.10822075 -0.11069653
000310 b2 ae c5 bd 69 b8 ad be ef ac 71 3f e3 a0 93 bf
       -0.09652461 -0.33929756 0.944045 -1.1533474
000320 40 fc 21 bd 3b a8 a1 3e db 1a 9d be 68 7b 95 be
       -0.039547205 0.31573662 -0.30684552 -0.29195714
000330 46 aa 27 3f b7 a6 3d be 12 ce 24 3f 4c 3e 87 bf
       0.6549419 -0.18520628 0.6437694 -1.0565886
000340 e9 b4 fb 3d f7 63 e1 be a5 34 66 bf 37 e7 13 c0
       0.12290365 -0.4402158 -0.8992408 -2.3109872
000350 44 59 ec bc 4a 6b 10 3f ff e6 ed 3e 8a 89 4b 3f
       -0.028851159 0.5641371 0.464653 0.7950674
000360 a9 7b 4d 3f dd ae fb 3e 4f 8a 31 3f 85 58 4c 3f
       0.80266815 0.49156848 0.6935167 0.7982257
000370 0f 49 a4 be c1 8e 07 3d 9f 52 0e 3f fe 29 18 c0
       -0.3208699 0.033095125 0.5559482 -2.377563
000380 be c1 f0 be 9b 1c 40 be 38 17 24 3e b2 13 89 be
       -0.47022814 -0.18760912 0.16024482 -0.2677284
000390 d7 57 ca bf b3 6b 48 3f d8 40 3e bf ae d6 0d 3f
       -1.5808057 0.78289336 -0.74317694 0.554057
0003a0 dd 76 20 3f 04 d1 ae 3f cb 24 00 c0 5a 8d d6 3d
       0.6268137 1.3657537 -2.0022457 0.104761794
0003b0 86 0c eb 3e f5 4f fc bf 97 3e 09 c0 4f 4c 93 bc
       0.45907992 -1.9711901 -2.1444452 -0.017980723
0003c0 1e 2a 65 bf 7f 05 8e bd 01 51 4b bf 7f a8 b9 bd
       -0.8951739 -0.06934642 -0.7942048 -0.09065341
0003d0 cf 25 c7 bf d2 7e 94 bf 07 fa 61 be 2a 98 6b be
       -1.5558413 -1.1601202 -0.22068034 -0.23007265
0003e0 e1 bc 8f bb 3b a5 4e 3e 54 11 85 bf ad ac fa bc
       -0.00438653 0.20180218 -1.0395913 -0.030599916
0003f0 24 a9 73 bf cd 9f 78 3f e3 16 eb 3d a1 6c fe bd
       -0.95179963 0.97118837 0.11478975 -0.12423063

bias f4 [9]
000000 a1 81 f1 be 0a 62 62 40 dd d0 90 bf 54 55 fc bf
       -0.47169212 3.5372338 -1.131374 -1.971354
000010 39 e1 e9 bf 4c 0f 1d bf 72 5e 1a bf 18 e1 16 bf
       -1.8271858 -0.61351466 -0.6030036 -0.58937216
000020 92 d3 2f bf
       -0.68682206

weight f4 [4, 3, 8, 8]
000000 7f 48 89 bb 96 b4 8d 3d c1 80 e0 be 40 bb 18 bf
       -0.0041895504 0.0691921 -0.4384823 -0.5966072
000010 6f 47 ff bb 84 08 54 be 62 d2 09 be 77 79 82 3d
       -0.007790498 -0.20706373 -0.13459161 0.06370824
000020 be 86 9a 3d ad 1e bf bd 50 d2 84 be 18 71 4d 3c
       0.07545231 -0.09332023 -0.25941706 0.012539171
000030 d0 01 e5 3e 10 e5 fe 3e a6 81 ae 3e 52 24 92 3e
       0.44727945 0.49784136 0.3408329 0.28543335
000040 7b 0b 12 3e 41 a3 b1 be 11 c7 a8 bd 0a e0 0b 3e
       0.14262192 -0.34694865 -0.08241094 0.13659683
000050 87 ff 80 3e 4f f5 b7 be 22 23 89 3d f8 c5 2d be
       0.25194952 -0.35929343 0.06696154 -0.1697005
000060 87 d8 e7 bc 8c ed d4 be 55 ec 03 be 9a fb 90 3e
       -0.02830149 -0.41587484 -0.12883122 0.28316957
000070 d6 9c 2c bd 72 95 d7 be 8b 71 33 be a0 3d d8 be
       -0.042141758 -0.42106205 -0.17523782 -0.42234516
000080 0b e6 84 be 56 4e 62 be 20 e4 af be d8 65 a4 be
       -0.2595676 -0.22100195 -0.34353733 -0.3210895
000090 5f 73 28 be 08 44 8d 3d 6f bc 4e bd 2b 0d bf be
       -0.1645026 0.068977416 -0.050472673 -0.37314734
0000a0 23 8d 82 bd 08 dc af bd 8f 23 2a bd 1d b5 a5 3d
       -0.06374576 -0.085868895 -0.041537818 0.08091185
0000b0 93 af 56 3d 1d 6c 04 be c0 f6 a9 be 85 80 26 bf
       0.052413534 -0.12931867 -0.33196068 -0.65039855
0000c0 5e f6 24 3e 50 99 90 bd 75 4b 17 3d 33 f6 3c be
       0.16109607 -0.07060492 0.036937196 -0.18453293
0000d0 8b 08 6d be d2 1f cf be e4 44 52 be fe 0d 23 be
       -0.2314779 -0.40453964 -0.20534092 -0.15923306
0000e0 7b cc 9d 3d 01 55 15 be 32 69 79 3e 34 e9 f3 3d
       0.07705017 -0.14583208 0.24356535 0.11909714
0000f0 1a b8 c7 bd 91 e8 57 be fd 70 80 be 8a c5 0a bd
       -0.097519115 -0.21084811 -0.25086203 -0.033879794
000100 c2 03 26 3f 50 64 69 3e 41 47 c4 be 57 a5 2f 3e
       0.64849484 0.22792172 -0.38335612 0.17152916
000110 73 89 7e 3f ce 85 b1 3e 73 ea 7e be 02 22 5e 3e
       0.9942848 0.34672397 -0.24894123 0.2169266
000120 3f 74 a3 3e de 6b c5 bd f3 09 05 3f 14 03 71 3f
       0.31924626 -0.09639715 0.51968306 0.9414532
000130 b0 5d 8f 3f e7 8e e3 3e 9f c3 aa 3e b7 60 db 3e
       1.1200466 0.44444963 0.33352372 0.42847225
000140 26 9d 93 3d 9b 6b d2 be 0b d2 7a 3f d1 08 92 3f
       0.07207708 -0.4109772 0.9797675 1.140894
000150 73 bb df 3d 66 8b d8 bf 2b 5c 78 bf 3f 0a 00 39
       0.10924425 -1.6917541 -0.9701564 0.00012210848
000160 e0 b4 be be f9 86 23 bd 1d 3d 86 3f d0 37 88 3f
       -0.37247372 -0.03992364 1.04874 1.0642033
000170 84 b5 91 be db 7c 7f bf b9 76 58 3e 92 6c 30 3f
       -0.28458798 -0.9979989 0.21139039 0.68915665
000180 64 d0 a9 be 7b 94 8e 3e 63 4f dc 3e 3f ff 8d 3d
       -0.33166802 0.27847657 0.43029317 0.0693345
000190 e2 6d 17 bf 52 4f cb 3e 6c ac 4a 3f 23 8c 2b 3f
       -0.5915204 0.39708954 0.79169345 0.67010707
0001a0 98 7d 97 3e 37 66 71 3f 1f b8 50 3f 24 cb 62 3d
       0.29588008 0.9429659 0.81530946 0.05536951
0001b0 ff d6 85 bd a4 9b 8e 3e b0 95 0a 3f a1 0e 35 3e
       -0.06535148 0.2785312 0.54134655 0.17681362
0001c0 51 c7 c9 3d be 92 9a 3e c2 1f de 3e 6d 9d c1 3d
       0.0985247 0.3019008 0.43383604 0.09453855
0001d0 17 8d 99 3c 8d 4d 63 be bb 2f 13 3f 13 f0 35 3f
       0.018744035 -0.22197552 0.57494706 0.7106945
0001e0 58 8b 34 be 41 7e de bd 96 ce a6 3d f6 63 bc 3e
       -0.1763128 -0.10863925 0.08144872 0.36795014
0001f0 2a 48 94 3e 4f f5 bc 3e 2e c1 40 3f f8 2b 16 3c
       0.28961307 0.36905906 0.7529477 0.009165756
000200 f7 bb e1 bc db 86 aa 3d 63 86 48 bc 43 aa ad bd
       -0.027555449 0.08326503 -0.012239072 -0.084797405
000210 03 f8 0c 3d fa 40 b6 be 8c 95 a3 be 37 3e e8 bd
       0.03441621 -0.35596448 -0.31950033 -0.113399915
000220 35 df d7 bd b5 77 51 be bc 7e dc bd 30 59 89 3b
       -0.1054062 -0.20455821 -0.1076636 0.00419154
000230 5f 38 08 be 9c 7c af be b7 97 8e 3e f4 78 8d bc
       -0.13302754 -0.34274757 0.27850124 -0.017269589
000240 56 3c b1 be a6 46 24 be e4 7b 89 b9 d5 cf 97 be
       -0.34616345 -0.16042575 -0.00026222982 -0.2965075
000250 fd 81 5a bf 35 b9 7e bf 6d 71 ff be e1 65 9d bd
       -0.85354596 -0.99501354 -0.49891225 -0.076854475
000260 ed 43 b2 be 50 a8 a0 be e7 01 e2 ba 8c 77 37 be
       -0.34817448 -0.31378412 -0.0017242999 -0.17916697
000270 47 95 47 bf f6 ad 4e be ba 2b cd 3d d9 2b ed bc
       -0.77962154 -0.20183548 0.10018106 -0.028951572
000280 37 1f 97 be 31 d4 19 3e 22 0d a6 be 77 98 1f bf
       -0.29516003 0.15022351 -0.32431895 -0.6234202
000290 f7 73 9c be 80 e6 93 3e 77 8b 17 3e 75 b0 e2 3d
       -0.30557224 0.28886795 0.14799295 0.11068813
0002a0 2a bd 56 be 35 6c 94 3e 69 98 1a 3d f5 d9 94 be
       -0.20970598 0.28988805 0.037743006 -0.29072538
0002b0 c2 c5 6b be 00 e3 a5 3d b6 95 5d be 28 5a de bd
       -0.23024657 0.080999374 -0.21639141 -0.1085704
0002c0 1a ee b6 3b 70 ae f4 bd 3c 88 0a be cb 07 92 bd
       0.005582583 -0.11947334 -0.13528532 -0.07130393
0002d0 3f 37 ba be b9 bf 49 be 79 ab 8e bd 65 06 11 3d
       -0.36370274 -0.19702043 -0.069662996 0.03540649
0002e0 b8 d4 17 bf 09 59 b3 be 6b 6e 88 be 5b 24 67 be
       -0.5930896 -0.35028866 -0.26646742 -0.22572462
0002f0 0c fa 28 be 0f df 43 3e 06 f0 77 bd 5b 5d 89 bd
       -0.16501635 0.19128059 -0.06053164 -0.06707259
000300 37 d3 f3 3e b0 af 22 3f d2 42 15 3f 65 aa 52 3e
       0.47622082 0.6354933 0.58305085 0.20572813
000310 2d 6c d2 3e 6b 2b 7d 3e 32 da dc 3e f2 d1 a4 3e
       0.41098157 0.24723594 0.4313522 0.32191426
000320 eb 21 49 3e f6 7e 79 3f 32 5d 2f 3f 67 64 d9 3e
       0.19641845 0.9745935 0.6850158 0.42459413
000330 6c 01 aa 3e 50 5f be 3e 03 83 a1 3e 36 96 2d 3e
       0.3320421 0.37182093 0.31545267 0.16951832
000340 ee 6a d3 bd 06 1b a8 3e 05 e1 90 3e e6 64 c5 bd
       -0.103231296 0.32833117 0.28296676 -0.096383855
000350 12 02 af be a5 c2 49 be 60 55 7f bd 73 c8 58 be
       -0.34181267 -0.19703157 -0.06233728 -0.21170215
000360 53 f4 29 bf 7b 23 a6 be c9 a2 75 be a8 b3 09 bf
       -0.66388434 -0.32448944 -0.23987879 -0.5378976
000370 b2 cb 05 bf 3d ae 35 3b 4f fc ab 3e 32 ab ba bd
       -0.5226394 0.0027722262 0.33590934 -0.09114684
000380 98 af e9 be 2e c6 00 bf 49 c4 0c bf 9b 15 fa be
       -0.4564178 -0.503024 -0.5498701 -0.4884461
000390 7c a4 c8 be cd b9 df 3e 00 3f 1f 3f 56 c6 94 3d
       -0.39187992 0.43696442 0.62205505 0.07264392
0003a0 9d 75 c5 bd 9e 48 70 be f0 7f e9 bd 84 fe ad 3e
       -0.096415736 -0.23465201 -0.11401355 0.33983243
0003b0 aa da 88 3d 29 02 b8 3e b8 c8 47 3f d8 1a df 3a
       0.06682332 0.35939148 0.7804065 0.001702155
0003c0 da 32 7d 3e d6 19 35 3e a2 03 a5 bd 1b fa 3a 3d
       0.2472643 0.17685637 -0.080573335 0.045648675
0003d0 c0 9b d7 bd 0f 8a 27 3d e0 c4 dd 3e f4 2a 75 3e
       -0.10527754 0.040903147 0.43314266 0.23942167
0003e0 76 a7 13 3f 91 88 9c 3e 2c 8a 38 be 43 89 66 be
       0.576774 0.30572942 -0.18021458 -0.22513299
0003f0 7f 45 19 3d d0 e6 ed 3e 82 6e 9e 3e f0 c7 ed 3d
       0.037419792 0.46465158 0.30943686 0.11610401

bias f4 [4]
000000 94 de c6 be 98 18 1d bf 56 af 0b 3f b8 d6 cf bd
       -0.3884169 -0.6136565 0.54564416 -0.10148376

weight f4 [8, 4, 6, 6]
000000 f2 6e b0 3d 45 8a 49 3e 4b 8d cc 3d 4f fd 0e bf
       0.08614911 0.19681652 0.09987887 -0.5585527
000010 45 03 76 3f 87 ab c5 bd bc c0 a5 3e 74 0f 81 bf
       0.9609874 -0.09651857 0.32373607 -1.0082841
000020 d8 ac f9 3c c7 9f b2 3e ab 24 2c 3f 70 1b 82 be
       0.030477926 0.34887525 0.6724345 -0.25411558
000030 c7 98 7e be d9 fe a1 be 67 44 87 be 1b e4 25 3f
       -0.24862967 -0.31639746 -0.26419374 0.64801186
000040 c5 be 18 3e 73 35 1e bf f1 bc 28 3f 48 06 b4 bf
       0.14916523 -0.6180031 0.659133 -1.4064417
000050 41 2b 5a be 04 cb 67 bd a5 f9 38 bf f2 3c 37 be
       -0.21305563 -0.056590095 -0.7225593 -0.17894343
000060 c5 67 fb 3e 61 b3 8e 3f 23 5e 90 be ea c2 f4 bb
       0.49102607 1.1148492 -0.2819682 -0.0074695246
000070 ee 74 24 be 57 3a 79 3f 8f ad 86 bf 36 14 8b be
       -0.1606023 0.97354645 -1.0521716 -0.27163857
000080 77 e1 9d be ae 15 12 be f3 d6 e8 3e 3d a0 d7 3e
       -0.3083608 -0.14266083 0.45476493 0.4211444
000090 45 6b 4f 3e 38 78 28 3e 8f 0b 84 3e 0f 18 64 be
       0.20255764 0.1645211 0.25790069 -0.22274803
0000a0 ce b0 20 bf 5e bb 2a 3b 28 d4 63 3d aa 29 8f bf
       -0.6276978 0.002605162 0.05562225 -1.118459
0000b0 24 e3 ed 3e 90 5d 93 be f9 11 03 3e 3a 05 a6 3d
       0.46462357 -0.2878232 0.12799825 0.08106466
0000c0 be fb 1e 3f 11 09 10 3b 40 8f c3 3e 62 ea ad be
       0.6210288 0.002197806 0.3819523 -0.33967882
0000d0 61 d1 fa 3e 5b cb d6 bd b5 6d 3b bf c4 8e dd be
       0.48987868 -0.10488006 -0.73214275 -0.43272984
0000e0 ca f4 a4 3d 48 e8 1a be d4 f9 93 3e ee 59 e3 be
       0.08054502 -0.15127671 0.2890154 -0.44404548
0000f0 14 12 7e 3f 06 a0 47 3f 08 f5 fb 3e 6d 25 f9 3e
       0.99246335 0.7797855 0.49210382 0.48661366
000100 1c 5b 07 bf bd ef 63 bf b2 ee 5f 3f 6c ab 66 3e
       -0.52873397 -0.89037687 0.87473595 0.2252633
000110 c1 24 89 be 2f 34 eb 3e 20 02 c8 3e c8 e0 58 bf
       -0.26785854 0.4593825 0.3906412 -0.8471799
000120 5b e1 af be f2 7b 28 bf 33 c5 f2 3e c7 99 f3 bc
       -0.3435162 -0.65814126 0.47416076 -0.029736413
000130 60 08 43 be 7e 59 59 be b1 c7 81 3e 85 e3 d9 3e
       -0.19046164 -0.21225545 0.25347665 0.42556396
000140 62 54 df 3e 32 fe 19 3d 49 80 05 3d aa a8 38 3e
       0.43619066 0.037595935 0.032593045 0.1803309
000150 64 4b 85 3f 2d 53 8b 3e df 42 a2 3d 3d 33 08 bf
       1.0413632 0.27211896 0.07922911 -0.53203183
000160 f4 ce 82 3e bd c4 1d bd b2 59 01 bf 06 c7 27 3f
       0.25548518 -0.038517702 -0.5052749 0.6553806
000170 8e fc 0c bf 12 2e 94 bf 53 52 c1 bd 76 34 24 be
       -0.5507287 -1.157656 -0.0943953 -0.16035637
000180 b7 3f a7 3f d5 ef 52 be ab 00 25 bf ab a0 0c 3e
       1.3066319 -0.20599301 -0.64454144 0.13733165
000190 81 80 08 be 26 f4 25 bf a7 4d 29 bf 03 e3 5f bf
       -0.1333027 -0.64825666 -0.66134113 -0.8745577
0001a0 a3 5c 0b bf 98 d9 a8 be a3 3b b5 be 9d ad c5 3d
       -0.5443823 -0.3297851 -0.35397062 0.09652255
0001b0 7c e3 20 3d e9 c9 7d be 2a 32 3d be 42 2a fb 3c
       0.039279446 -0.24784054 -0.18476167 0.030659799
0001c0 3f 1f e0 bd 88 b9 48 3c 0f 48 49 3c d6 fd 0e 3c
       -0.1094346 0.012251265 0.0122852465 0.008727511
0001d0 06 00 13 3c 2a 70 3a bd 51 00 5e bd 5e 1c ba 3d
       0.008972174 -0.045517124 -0.05419952 0.09087442
0001e0 11 75 41 3c 22 c4 75 3e 63 de ee 3d 87 80 c1 3d
       0.011807696 0.240006 0.11663511 0.09448343
0001f0 3c fa 14 3e ec 13 66 3d 83 12 3e bd 83 e3 17 3e
       0.14548582 0.056171343 -0.046404373 0.14832883
000200 c5 94 f7 ba 2b 48 a8 3d 4c b5 91 3e 97 72 33 be
       -0.0018888941 0.0821689 0.2845863 -0.17524181
000210 8a 68 94 bc ea e5 d7 bd 5f 48 79 3c a1 5c 19 bd
       -0.018116254 -0.105418995 0.0152150085 -0.037441853
000220 17 6c 24 be df 46 87 bb e0 71 96 3c fc 54 5d bc
       -0.16056858 -0.0041283215 0.018364847 -0.013509031
000230 cb d4 20 3b 04 23 73 be 41 91 ee bd 8d 4c 0e be
       0.0024540897 -0.23743826 -0.11648799 -0.1389639
000240 2b d9 89 bf 60 b2 9c be 5d 55 20 bf 10 91 6a bd
       -1.07694 -0.3060484 -0.62630254 -0.05726725
000250 cd 40 81 3e 53 8d 0b bf 6c 5f 92 be 44 9e 58 be
       0.25244752 -0.5451252 -0.28588426 -0.21154124
000260 98 2e 31 3d 09 83 dc 3e a8 50 12 3f 25 80 87 be
       0.043257326 0.43068722 0.5715432 -0.26464954
000270 a1 4d f0 bd 02 1d 61 3e 02 27 a7 3e db 30 e8 3e
       -0.117335565 0.21983722 0.32646948 0.45349774
000280 93 25 b5 3e 30 a8 eb be 9b e3 83 be b0 57 22 be
       0.3538023 -0.46026754 -0.25759587 -0.15853763
000290 3d a1 19 be de a0 eb bc 08 79 5f bf 79 e9 0a 3f
       -0.15002914 -0.02876323 -0.87294054 0.542625
0002a0 25 18 e1 3d 09 dc d8 3d 6a 03 21 3e ac 60 d0 be
       0.10990933 0.105888434 0.15723959 -0.40698755
0002b0 94 47 6d bd bb 5f df 3e 97 2d b1 be 03 4d d3 be
       -0.05792959 0.43627724 -0.34605095 -0.41269693
0002c0 ce 2e 88 be 87 37 48 bf 15 68 2a bf ad 59 42 bf
       -0.2659821 -0.7820973 -0.66565067 -0.75918084
0002d0 3f 03 35 3e 0d 21 4f 3e 6b bd 80 3f 5d fe d7 3e
       0.1767702 0.20227452 1.0057806 0.4218625
0002e0 f8 0e 3f 3f 0e 3b 44 3f 65 21 3f 3f d2 cd a9 3d
       0.74632215 0.7665261 0.7466033 0.0829121
0002f0 d0 5d c3 be 9f b4 38 bf 9a 6a 83 bf a3 6e 15 bf
       -0.3815751 -0.72150606 -1.0266907 -0.58371943
000300 03 e5 26 3f 1e 5a 8b 3d 4e 41 7d bd 1c 73 46 be
       0.65193194 0.06804298 -0.061829858 -0.19379848
000310 c9 1b 5d be 6f f3 93 3e 7e 5c bb bd eb f3 55 3e
       -0.2159263 0.28896663 -0.09148501 0.20893829
000320 b4 1a 1d 3e 0d 71 18 bf 4d 5b a5 be 26 a1 37 3e
       0.15342218 -0.595475 -0.3229622 0.17932567
000330 80 d6 9e be f7 37 3f 3e ed f6 99 3e cf e3 fc be
       -0.31023026 0.18673693 0.30071202 -0.49392554
000340 4a 69 45 be d8 f4 8a 3e cb c4 38 be 35 ca 02 3f
       -0.19278446 0.27139926 -0.1804382 0.51089793
000350 7c 12 ce 3e ee 8d 8b be 29 3e 56 bd 06 31 59 3f
       0.40248477 -0.2725672 -0.052305374 0.8484043
000360 5d 6c e6 3d c7 af 0d 3e e4 f7 25 be c0 40 3e 3e
       0.112511374 0.13836585 -0.16207844 0.18579388
000370 e4 1f c5 bd da ad 01 bf be 43 b1 3e c0 a2 7c 3c
       -0.09625223 -0.506559 0.34621996 0.015419662
000380 8d f0 10 be ef 76 1d be 83 e8 60 bc 7b 45 ea 3d
       -0.14154263 -0.15377401 -0.01372731 0.114390336
000390 84 d0 2b 3f 84 c3 ad 3e b2 d8 0b bf 2b bc a3 bd
       0.67115045 0.3393823 -0.54627526 -0.079948746
0003a0 9a 0a 28 3e 22 b3 77 be 2c 44 36 3d 8d cd f6 3e
       0.16410294 -0.24189427 0.044498608 0.48203698
0003b0 de 56 53 3e d1 31 24 3e f9 b7 ad 3d 8a ef a3 3e
       0.20638606 0.16034628 0.084823556 0.3201869
0003c0 c5 fb ed bd 73 cc 86 3e 4b e2 59 3d 5e 0b d3 3d
       -0.11620287 0.26327857 0.053194325 0.103049025
0003d0 3a 96 8e 3f bf 40 52 be e7 19 93 be c3 2a 76 bd
       1.1139596 -0.20532511 -0.287307 -0.060099375
0003e0 43 f1 36 3d b4 03 7d be 0e dc b4 3e fc 4f cb 3e
       0.04466368 -0.24708444 0.35324138 0.3970946
0003f0 73 b1 b7 bd 7f 76 08 bd 97 cd fa 3c 69 a7 63 3c
       -0.08969393 -0.03331613 0.030615611 0.013894894

bias f4 [8]
000000 09 e4 1f 3e f0 14 03 c0 d2 36 07 3e 6f fa 23 bd
       0.15614332 -2.048153 0.13204506 -0.040033754
000010 24 4c 52 bf ae 76 7a 3d f5 ca 21 be bd b2 7d bf
       -0.8214743 0.061148338 -0.15800078 -0.9910086

weight f4 [200, 8, 3, 3]
000000 ed aa 9a be cf 7b 36 be 21 46 de bd 2c b2 c9 bd
       -0.3020853 -0.17820667 -0.1085322 -0.09848437
000010 4e b4 41 be 6f 53 96 bd 06 6c 4e bc 37 9c 3d bd
       -0.18916437 -0.073401324 -0.012598997 -0.046291556
000020 fb af 92 3c 93 b2 02 3d 65 ca c2 bd 65 38 2f 3c
       0.01790618 0.031908583 -0.0951126 0.010694598
000030 e1 18 f0 bd b6 8f 26 bd 66 1a 7b 3c 82 6b 09 be
       -0.11723495 -0.040664397 0.015326118 -0.13419917
000040 85 cf 4a be 9f 4c 9f be d4 ca 65 be 1e 62 2d be
       -0.19805725 -0.31113145 -0.22440654 -0.1693196
000050 20 10 a0 be 4e 04 5b bd 6f 0a 32 be e3 63 98 be
       -0.31262302 -0.053470902 -0.17386793 -0.29763708
000060 07 20 a2 bc 0e 63 ce 3c 8d f2 58 be 32 28 b2 bd
       -0.019790662 0.025193717 -0.21186276 -0.08699073
000070 a0 dd de bd 32 94 2a 3b af 24 29 be 03 8d 98 3c
       -0.10882115 0.0026028273 -0.165179 0.018621927
000080 73 6c 29 be 03 43 08 be 65 55 9f bc 02 a1 33 be
       -0.16545276 -0.13306813 -0.019449899 -0.17541888
000090 64 37 c6 bd 21 8e af be c5 03 43 be 4b 1a 24 bc
       -0.09678534 -0.34288123 -0.19044407 -0.010016034
0000a0 62 11 95 bd 73 10 83 be 72 78 a4 bd 1a a8 24 3d
       -0.07278706 -0.25598487 -0.080307856 0.040199377
0000b0 75 ad 1c be f7 72 8f be 99 e1 0a bf e3 fd 8c bd
       -0.15300544 -0.280174 -0.54250485 -0.068843625
0000c0 75 a0 99 be 78 15 3d be 1f 45 88 be 3c 66 19 be
       -0.30005231 -0.18465221 -0.26615235 -0.14980406
0000d0 08 89 9b be 7f c7 12 bd bc 8c 9a be 9a 81 01 3d
       -0.30377984 -0.035834786 -0.30185497 0.03161774
0000e0 29 f6 57 be 38 d4 a6 be 08 73 31 bc de d6 48 be
       -0.21089996 -0.32583785 -0.010830648 -0.19613215
0000f0 e4 a1 ec be ff 0e 93 be e2 1d 8e bd c6 81 84 bd
       -0.46217263 -0.2872238 -0.069392934 -0.06470065
000100 f5 9f e0 bd 4a 56 84 3d e5 03 6b ba 06 66 a9 bc
       -0.109680094 0.06461771 -0.0008965119 -0.020678531
000110 f1 8f 28 3d 54 97 d1 bd 32 89 82 3d 87 e8 dd bc
       0.0411529 -0.10233942 0.06373824 -0.027088417
000120 a0 fc bd 3d a0 ec de bd 76 09 94 3d d5 e3 47 bf
       0.092767 -0.108849764 0.07228367 -0.7808202
000130 3b fb 7a be d8 5d e3 bb d5 0f 81 bf f4 73 f4 bd
       -0.245099 -0.0069386773 -1.0082957 -0.11936179
000140 ca 0b 85 bf 73 70 01 bf 0b 8b 06 3f 8f b0 7d 3e
       -1.0394223 -0.5056221 0.5255591 0.24774383
000150 c3 8c e1 bd 89 0e 54 3f 33 7f 26 be 3c 92 e2 3e
       -0.11013176 0.8283468 -0.1625946 0.44252193
000160 ed 28 7b bf 2e 7c 4b bf a9 11 7d bb 81 b0 de 3e
       -0.9810932 -0.7948636 -0.0038615263 0.43494037
000170 36 6f 7b bf 4e 2b a5 be d5 44 47 3e 7e 3d 92 3f
       -0.9821657 -0.322596 0.19459851 1.1425016
000180 cd 4d 0a 3f e3 71 08 3f 4a 14 4e 3e d5 51 0d 3d
       0.54024965 0.5329878 0.20124927 0.03450187
000190 a1 44 76 bf 29 49 6a be 03 9a 28 bf 94 c7 23 bf
       -0.9619847 -0.22879471 -0.65860003 -0.6397641
0001a0 d7 74 48 3f ec 63 80 bf 4b f6 d8 3e 3b ec 18 3f
       0.78303283 -1.0030494 0.42375407 0.5973546
0001b0 cd ed 7d 3f 34 48 11 bd e9 31 5b 3f e2 1b 8f 3f
       0.9919098 -0.03546925 0.8562303 1.1180384
0001c0 62 cf 82 bf 4e 9f 60 bf d6 d8 02 bf d0 9a 24 bf
       -1.0219538 -0.8774308 -0.51112115 -0.64298725
0001d0 80 69 22 3f 51 b7 3d 3e 50 51 9a bf ab 4d aa bf
       0.6344223 0.18526961 -1.2056065 -1.3304952
0001e0 f2 2d 9d 3e 5e 46 3f 3f 62 c5 1d bd 26 21 ba 3d
       0.30699116 0.74716747 -0.038518317 0.09088354
0001f0 75 a0 b3 3e d9 77 15 3d 59 d4 06 bf 8c e4 4f bf
       0.35083356 0.03649125 -0.52667767 -0.8120811
000200 26 49 cf be fd 04 d6 3e 30 74 2b bf 7f 49 be be
       -0.40485495 0.4180068 -0.66974163 -0.37165448
000210 bc a5 eb be f8 49 90 bc 2a 03 c0 be 32 26 37 3f
       -0.46024883 -0.017613396 -0.37502414 0.71542656
000220 d1 1f 43 3f 86 b6 8a 3d 4b a1 06 3e dd a2 01 3f
       0.76220423 0.06773095 0.13147466 0.50639135
000230 31 96 16 bf 57 90 83 3f 85 38 a6 bb 6f 70 30 bf
       -0.58822924 1.0278424 -0.0050726556 -0.6892156
000240 fe 59 c0 be eb 18 21 bf 6f 4f 89 3d a9 ef dc 3e
       -0.3756866 -0.62928647 0.06704604 0.43151596
000250 a7 9e 1b be b0 af 48 bf 1d 74 6b bd 32 69 f9 be
       -0.1519724 -0.7839308 -0.05748378 -0.4871307
000260 bf a3 17 bf ef b7 fe bd 7f ba 61 3e b1 a4 26 bf
       -0.5923423 -0.12437426 0.22043799 -0.6509505
000270 e4 c5 55 be d5 6a d2 3c 3b 64 ed be 0f 95 b5 be
       -0.2087627 0.025685707 -0.46365532 -0.35465285
000280 92 a8 3c be 20 71 28 bf 10 7d 00 3c d3 94 c4 3e
       -0.1842368 -0.65797615 0.007842317 0.38394794
000290 f8 4e 57 bf 3d 9e 6b 3e 6a a0 70 bd f5 fb 25 3d
       -0.8410487 0.23009582 -0.058746733 0.040523488
0002a0 2d 7a 1a bd 80 b8 9e ba 80 d6 49 bf f3 e6 dc be
       -0.037714172 -0.0012109429 -0.78842926 -0.4314495
0002b0 17 5a cd be e1 e5 5c bf 50 7b aa be 9b e9 dd 3e
       -0.40107796 -0.8628827 -0.33297205 0.4334229
0002c0 92 49 a8 bd 94 a2 0a bf 21 41 a4 bf df 53 85 bf
       -0.082171574 -0.54154325 -1.2832376 -1.041622
0002d0 89 81 66 3d 07 5c 39 3f 24 a5 5e 3e a7 2d ae 3e
       0.056275878 0.7240605 0.21742684 0.34019205
0002e0 90 0d e3 3e 76 9b 10 3f 9b 45 e3 3e ba f9 50 3f
       0.44346285 0.56487215 0.44389042 0.8163105
0002f0 13 97 d3 3e 24 bf 98 3f 67 15 01 3d c6 fa 5f 3f
       0.41326198 1.1933331 0.03151455 0.87492025
000300 63 da 62 3e 5f e0 6a bf 0a 7d 0a 3e f7 b3 ca bd
       0.2215362 -0.91748613 0.13524261 -0.09897607
000310 1d 8a c7 3e 56 25 1e 3f 55 f8 bd bc e7 74 28 bd
       0.3897256 0.6177572 -0.023189703 -0.04112711
000320 71 6d 56 3e de 20 c7 3d 51 11 c7 be ca 64 ac be
       0.20940186 0.09723066 -0.388804 -0.33670646
000330 cd cd e0 bd 2b 16 c3 bd 84 dd b9 3e 6f 9a 99 3f
       -0.109767534 -0.095257126 0.36301816 1.2000254
000340 5e e2 35 3f 7e da b7 3e 99 55 0a 3f 05 e5 3b 3d
       0.71048534 0.35908884 0.5403686 0.045872707
000350 8d 15 d4 3e e9 e7 10 3b 5e d0 d1 be c7 81 cf 3e
       0.41422692 0.0022110885 -0.40979284 0.405287
000360 a8 b3 85 bf 99 b2 24 be b6 35 54 3f 4a 64 00 3f
       -1.0445452 -0.16083755 0.82894456 0.5015303
000370 7b 60 e2 3e be 3f 07 3f 40 1c 6e bf 89 93 7e 3e
       0.44214234 0.5283164 -0.93011856 0.24860968
000380 9e c5 98 be 2a 16 8a 3e 4b 3b af be e6 02 48 bf
       -0.2983827 0.26970035 -0.34224924 -0.7812942
000390 19 18 87 bf be 62 e7 be 2c b0 03 bf 0b 3d c9 be
       -1.0554229 -0.45192522 -0.5144069 -0.39304385
0003a0 13 e3 08 bf 5c 24 26 bf 8b 23 bc bf 30 7b 64 bf
       -0.5347149 -0.6489923 -1.4698347 -0.8925047
0003b0 da 7c 22 be 19 54 33 bd c9 b3 69 bf 91 16 91 3f
       -0.1586794 -0.043781374 -0.91289955 1.1335012
0003c0 df 76 88 3f 7a f5 30 3f 5d 92 7b 3f 95 89 1a bf
       1.0661277 0.6912457 0.9827021 -0.60366184
0003d0 d2 10 a7 be 83 e0 be be 21 76 f2 3e 74 ab 82 be
       -0.3263002 -0.37280664 0.4735575 -0.25521433
0003e0 16 cb 0e be 77 2c 33 3f 34 52 0a 3e 73 81 b7 be
       -0.13944659 0.6998972 0.1350792 -0.3584095
0003f0 1f 8c 06 bf 4f b5 31 bf 91 df 64 bf 45 7b 1c 3e
       -0.5255756 -0.6941728 -0.89403635 0.15281399

bias f4 [200]
000000 7d fb 07 be c0 2b cb bf 06 91 33 c0 f6 21 a2 be
       -0.13279529 -1.5872726 -2.8057265 -0.31666535
000010 b0 7c 1c 40 66 f6 9b bf 99 78 2d be a3 41 99 bf
       2.4451103 -1.218457 -0.16940536 -1.1973156
000020 30 fe ac bf 52 44 15 bf 37 26 a0 3f 90 88 58 bd
       -1.3515072 -0.58307374 1.2511662 -0.05286461
000030 ac 37 65 be 11 a0 10 bf 7a c2 1c 40 35 c3 87 be
       -0.22384518 -0.5649424 2.44937 -0.2651612
000040 d7 60 a0 bf 43 93 a8 bf f0 ff 89 bd d4 71 1a 40
       -1.2529553 -1.3169941 -0.06738269 2.4131975
000050 6c 5f 85 be 4d c4 fc bd de 9b 22 40 ff 31 af 3f
       -0.26049364 -0.12342129 2.5407634 1.3687133
000060 02 69 06 be 98 9c 54 bd 02 3b 80 be 28 38 70 bf
       -0.13125995 -0.051907152 -0.2504502 -0.9383569
000070 73 09 71 3f 40 ec 4c bd 82 b4 27 3f a1 d0 36 bf
       0.94155043 -0.050029993 0.6550981 -0.7141209
000080 78 c3 2c be 50 4c 10 be 79 05 cf 3e 11 fb d5 bf
       -0.1687144 -0.14091611 0.40433863 -1.6717244
000090 db 24 9b 3f d2 70 d3 bf 35 5a 26 3f fc 4b 25 be
       1.2120622 -1.6518805 0.64981395 -0.16142267
0000a0 76 7e 27 3e 89 bc 0c bf 87 af 6f bd e1 3f 76 bf
       0.16356835 -0.5497518 -0.058517005 -0.9619122
0000b0 e2 7b c6 bd a9 6a da 3f d7 c4 a1 bf e1 fd 07 c0
       -0.096915975 1.70638 -1.2638196 -2.1248705
0000c0 64 f2 a9 be 0b 6e 5e 3f 52 ac 95 3e 98 05 9f bd
       -0.33192742 0.8688666 0.29233032 -0.07764739
0000d0 0c 60 72 be 5b 61 69 40 da 28 c7 bd 13 36 47 c0
       -0.23669451 3.646567 -0.09724589 -3.1126754
0000e0 88 db de bf d6 ac cb 3f e4 bd 12 c0 51 d0 20 40
       -1.7410746 1.591212 -2.29284 2.5127146
0000f0 2b cd 3a be 6a d1 2b c0 04 a9 0f bf 37 f9 d3 be
       -0.18242328 -2.6846566 -0.5611727 -0.41401073
000100 df 6d e0 3f 89 c8 0c c0 3b d4 a3 bf 10 73 f4 3f
       1.753353 -2.1997397 -1.2799143 1.9097614
000110 39 a4 0a bf 98 27 80 3f 35 e0 a2 bf 2a 13 8a 3f
       -0.54156834 1.0012083 -1.2724673 1.0787098
000120 34 c1 a6 bf 54 59 c2 3e 95 27 f0 be b1 cb a1 bf
       -1.3027711 0.37958777 -0.469052 -1.2640287
000130 1f b5 90 3c ec d2 27 be af fe 6d 3f 7a 36 a0 bf
       0.01766449 -0.16389054 0.9296674 -1.2516625
000140 9c eb 36 40 98 88 96 be e7 c8 ed 3f 6d 68 65 3f
       2.8581305 -0.29401088 1.8576936 0.89612466
000150 7e 85 cc bf 68 6e 8b 3f 28 0b 8e 3e a3 7f 67 be
       -1.5978239 1.0893068 0.27742887 -0.22607283
000160 a1 cf d8 bd f7 60 57 3e f9 5d ce 3f da d5 c7 be
       -0.10586477 0.21033083 1.6122428 -0.39030343
000170 47 8f 16 40 ac a4 f8 3f e6 cd 8d 3f 12 4f 9f bd
       2.352495 1.9425254 1.107846 -0.07778753
000180 3e b1 0f 40 ca ec b9 bd c2 9e 25 3f bd 2a 19 3f
       2.245193 -0.09078367 0.6469537 0.5983084
000190 e2 cc 25 be 0c 3f a1 be 7f 5e 5e bf 43 18 5d 40
       -0.16191438 -0.31493413 -0.8686294 3.4546058
0001a0 29 2b a3 be 63 b6 35 40 93 7c bb 3f 5b 8d 2a c0
       -0.31868866 2.839257 1.4647392 -2.6648777
0001b0 0b da 95 bf 9e 41 90 3f 5f d8 6b bd 9d ef a4 3f
       -1.1707166 1.1270025 -0.057579394 1.2885624
0001c0 9b a3 49 be d5 87 cd 3e c4 a7 45 be e2 67 70 bf
       -0.19691317 0.40142694 -0.19302279 -0.9390851
0001d0 f5 45 1a 3f f4 df f6 3f 3c 60 fa 3f 8f cb 0b 40
       0.60262996 1.9287095 1.9560618 2.1842992
0001e0 4f f0 19 bf 2e d6 05 3e a6 86 8e 3f 7d 5d a3 bf
       -0.60132307 0.13069984 1.1134841 -1.2762905
0001f0 1b 6b af bf 88 0c 85 3d 1d 8c 1e 3f 1c 38 ce bd
       -1.3704561 0.06496531 0.61932546 -0.10069296
000200 99 ed fc 3e 61 47 fd be 06 90 bd bf ec a7 af 3f
       0.49400023 -0.4946852 -1.4809577 1.3723121
000210 c6 8e 09 c0 31 97 28 bf 13 60 f6 be dc b6 7b be
       -2.1493392 -0.658557 -0.48120174 -0.24581474
000220 9e 8e 24 be 23 14 52 bf 08 82 e6 3e fc e8 36 bf
       -0.16070029 -0.82061976 0.4502108 -0.71449256
000230 60 01 c6 3f 90 82 d7 bd 17 e7 ac bc e6 28 3a 3f
       1.546917 -0.1052295 -0.021106286 0.72718656
000240 51 70 36 3f 71 57 e6 3f ac 1f 16 be d5 68 2a bf
       0.7126513 1.7995435 -0.1466052 -0.6656621
000250 c3 92 8d be 27 b3 c7 bf d4 75 28 3f 95 8c 13 3f
       -0.27651033 -1.5601548 0.6580479 0.57636386
000260 86 19 b2 bf c8 0c 44 c0 c1 61 35 c0 72 45 ed 3f
       -1.3914039 -3.06328 -2.8340914 1.8536818
000270 61 4a ff be 91 97 99 3f d8 bb 43 be 1f ee 0b 3f
       -0.49861434 1.1999379 -0.19114625 0.5466022
000280 35 62 47 bf 14 dc 6b bf 2a b8 82 3f 66 12 51 3f
       -0.7788423 -0.9213269 1.0212452 0.816687
000290 4a bb d8 bf 02 cf 07 40 75 ea f7 bd c9 41 ac 3f
       -1.6932156 2.1220098 -0.12105266 1.3457576
0002a0 8c a5 73 3e 7d 24 9d 3c ff bd 37 c0 07 0e 97 3f
       0.2379362 0.019182438 -2.8709714 1.1801156
0002b0 1c 40 17 3d 75 59 c1 bd 66 ec 8b bf 62 23 70 3f
       0.036926374 -0.09440891 -1.0931518 0.9380399
0002c0 2b 70 09 40 73 d5 4f bf b7 98 3b bf 1d 98 7f 3f
       2.1474712 -0.8118507 -0.732799 0.9984148
0002d0 de e6 6d be e2 0a 02 40 a8 02 56 c0 51 f0 a7 bf
       -0.232326 2.0319142 -3.3439121 -1.3120214
0002e0 d5 a9 a0 be bf f3 df bd 3b 7f 4a c0 ed 0f 4e 3f
       -0.31379572 -0.10935163 -3.1640155 0.8049305
0002f0 f5 a4 e9 3e 59 aa 42 bf 0b 62 d7 bf 10 e6 b6 3d
       0.45633665 -0.7604118 -1.6826795 0.089306
000300 f1 e7 51 c0 59 f7 79 be 81 e6 71 3d e2 ea 64 be
       -3.2797816 -0.24410762 0.059057716 -0.22355226
000310 f4 04 19 be 42 19 b8 bf fa e9 a8 3f a6 32 c3 be
       -0.14943296 -1.4382708 1.3196404 -0.3812458
